Data/Tenpy/Basic/phis-nsteps4000-a4-f10-w32.9-cycles10.npy (npy, 32128 bytes, 1 tensors)

array f8 [4000]
000000 00 00 00 00 00 00 00 00 ed 2c 63 10 7c 9b 5e 3e
       0.0 2.8505327009231932e-08
000010 8a 33 d3 3d 83 9a 8e 3e ba 6d 02 dd 00 d1 a9 3e
       2.2801432822961106e-07 7.693892545459256e-07
000020 f5 cf 4b 23 a0 96 be 3e 51 c4 76 bd 3f dc cd 3e
       1.823209584359169e-06 3.5596308227349955e-06
000030 31 6c 9b 4f a0 c9 d9 3e 76 17 91 0b c0 76 e4 3e
       6.1482435229311196e-06 9.757932604280888e-06
000040 8f b1 6c b4 16 87 ee 3e ef cc 73 df c1 b7 f5 3e
       1.4556737040282551e-05 2.0711709990584142e-05
000050 2b 28 aa 11 8e c4 fd 3e 18 8e e8 c8 11 cb 03 3f
       2.8388779450362757e-05 3.7752609490373536e-05
000060 53 44 22 d4 2a ac 09 3f 06 b2 13 75 a3 4d 10 3f
       4.8966462160689735e-05 6.219206013086822e-05
000070 68 6c 7b 9a f0 56 14 3f fd b7 c5 4f 9b fc 18 3f
       7.75894501389582e-05 9.531686732142104e-05
000080 48 86 6f 9a 20 49 1e 3f 1d db fb e1 6c 23 22 3f
       0.00011553060049564981 0.00013838485846636656
000090 f1 ff 58 09 fd 7f 25 3f 7a d1 dc 43 46 3f 29 3f
       0.00016403163742673103 0.00019262058952452724
0000a0 57 3f 29 d1 38 66 2d 3f a2 a8 41 4a d7 fc 30 3f
       0.0002242988926632837 0.0002592111216076586
0000b0 8a 70 33 fe 34 7f 33 3f 97 d3 a2 76 8a 3c 36 3f
       0.00029749912046184905 0.0003393018765891985
0000c0 eb cf cb d7 1f 37 39 3f e7 38 b1 f0 2f 71 3c 3f
       0.00038475539604054695 0.0004339925805582193
0000d0 89 8e ae b5 e7 ec 3f 3f 4a 34 75 de 32 d6 41 3f
       0.0004871431062218675 0.0005443333038016665
0000e0 4b d8 5d de dc d8 43 3f f2 d6 09 06 72 ff 45 3f
       0.0006056860408836321 0.0006713206058310535
0000f0 21 57 7f 92 ea 4a 48 3f ab 6c a6 94 36 bc 4a 3f
       0.0007413525936452483 0.0008158937937880103
000100 b8 40 ba b4 3d 54 4d 3f ca c0 6f 7b ef 09 50 3f
       0.0008950520800272898 0.0009789313023667473
000110 58 41 74 40 f8 7d 51 3f 19 aa a7 b0 9f 06 53 3f
       0.00106763118111893 0.0011612472031808983
000120 05 fb b6 ab 47 a4 54 3f 46 54 7e 4e 4d 57 56 3f
       0.00125987052057014 0.001363587851277674
000130 7c 1b 6f d8 08 20 58 3f d6 f9 a0 91 cd fe 59 3f
       0.0014724813824941998 0.0015866286762641255
000140 1d 7c 91 b1 e9 f3 5b 3f b2 09 96 46 a6 ff 5d 3f
       0.0017061025776212776 0.0018309711252589675
000150 1f ea 01 8f 23 11 60 3f 7b a6 88 56 05 2e 61 3f
       0.0019612974647860294 0.0020971397646192803
000160 23 4c 3a fd 94 56 62 3f 57 31 61 44 ec 8a 63 3f
       0.0022385511345617433 0.002385579547114751
000170 8f 32 c8 20 22 cb 64 3f 18 68 af b0 4a 17 66 3f
       0.002538267761570907 0.002696653250933611
000180 25 e0 25 32 77 6f 67 3f a5 e2 c9 f9 b5 d3 68 3f
       0.0028607681317076744 0.0030306390966042423
000190 f0 38 f1 69 12 44 6a 3f 6f e7 3a ea 94 c0 6b 3f
       0.0032062873502020015 0.0033877285476053213
0001a0 d2 bb 8b df 42 49 6d 3f 36 06 77 a4 1e de 6e 3f
       0.003574972736138695 0.0037680243001154924
0001b0 b7 63 0a c1 93 3f 70 3f 25 49 a3 d4 2c 16 71 3f
       0.003966881908717682 0.004171538467021817
0001c0 b7 28 36 16 d7 f2 71 3f 25 0b c5 7c 8d d5 72 3f
       0.004381981070205202 0.004598190960964731
0001d0 ba 04 70 6a 49 be 73 3f 98 c3 fa a9 02 ad 74 3f
       0.004820143490179502 0.005047808080846837
0001e0 4c 33 8c 6c af a1 75 3f d0 ad a8 47 44 9c 76 3f
       0.005281148195319951 0.00552012130587394
0001f0 39 2c 67 33 b4 9c 77 3f ac e1 e1 88 f0 a2 78 3f
       0.005764678868625466 0.006014766300829793
000200 4d a5 e2 00 e9 ae 79 3f 71 88 cb b2 8b c0 7a 3f
       0.006270322961577546 0.006531282135911907
000210 ef ef bb 13 c5 d7 7b 3f f2 7f f2 f5 7f f4 7c 3f
       0.006797571022385525 0.0070691107240747775
000220 94 23 6c 88 a5 16 7e 3f 90 71 c0 56 1d 3e 7f 3f
       0.007345816243067644 0.007627596478439705
000230 93 d4 9d a4 66 35 80 3f 4c 3d 9b d2 4c ce 80 3f
       0.007914354227731379 0.008205986191937818
000240 13 e4 d5 86 b2 69 81 3f 3e 42 06 42 88 07 82 3f
       0.008502382984021428 0.008803429140955218
000250 b4 e6 a8 b4 bd a7 82 3f ad ac a6 bf 41 4a 83 3f
       0.00910900313930383 0.00941897741434724
000260 17 24 1c 75 02 ef 83 3f 89 2f 40 19 ed 95 84 3f
       0.009733218382750803 0.010051586468783362
000270 de d8 69 23 ee 3e 85 3f 3a 59 35 3f f1 e9 85 3f
       0.010373936134083935 0.010700115910975517
000280 0f 4e c8 4d e1 96 86 3f c9 10 35 67 a8 45 87 3f
       0.01102996843932316 0.01136333050693174
000290 74 23 fd db 2f f6 87 3f 9b a0 b2 36 60 a8 88 3f
       0.011700033093477315 0.01203990141796423
0002a0 6a 99 b8 3d 21 5c 89 3f 37 49 22 f5 59 11 8a 3f
       0.012382754989698614 0.012728407662767267
0002b0 01 02 b1 a0 f0 c7 8a 3f ba b1 f0 c5 ca 7f 8b 3f
       0.013076667694009282 0.013427337804466134
0002c0 fd dc 72 2e cd 38 8c 3f 6b e7 27 ea db f2 8c 3f
       0.013780215244294508 0.014135091861124235
0002d0 0a 7f d6 51 da ad 8d 3f 35 fc b0 09 ab 69 8e 3f
       0.014491754171842359 0.014849983437782746
0002e0 9e 83 08 04 30 26 8f 3f 12 b5 1d 84 4a e3 8f 3f
       0.015209555743298794 0.01557024207769556
0002f0 c6 56 87 90 6d 50 90 3f ea 0f 71 e4 60 af 90 3f
       0.015931808420495817 0.016294015830013032
000300 ae a1 d7 e1 6e 0e 91 3f bd 2a 71 db 86 6d 91 3f
       0.01665662053520272 0.017019374030762025
000310 df b2 4e d4 97 cc 91 3f 47 91 9a 81 90 2b 92 3f
       0.0173820231754459 0.017744310293566625
000320 f6 ab 64 4c 5f 8a 92 3f 46 67 7c 53 f2 e8 92 3f
       0.018105973279641994 0.018466745706155828
000330 2b 1b 58 6d 37 47 93 3f 05 e2 09 2a 1c a5 93 3f
       0.01882635693439309 0.01918453222831042
000340 13 93 41 d5 8d 02 94 3f f9 b8 5b 78 79 5f 94 3f
       0.019540992871401274 0.019895456286513433
000350 68 53 7d dc cb bb 94 3f df 30 bc 8c 71 17 95 3f
       0.020247636158575416 0.020597242560186465
000360 5b ac 53 d8 56 72 95 3f e5 98 e5 d4 67 cc 95 3f
       0.020943982080023776 0.02128755795401895
000370 98 23 c7 60 90 25 96 3f fd 72 59 25 bc 7d 96 3f
       0.021627670199254462 0.02196401575052941
000380 0e c9 6d 99 d6 d4 96 3f 04 ec b4 03 cb 2a 97 3f
       0.022296288599542406 0.02262417993663847
000390 40 98 39 7d 84 7f 97 3f 1e bc e5 f3 ed d2 97 3f
       0.022947378295065102 0.023265569697681447
0003a0 89 3d 12 2d f2 24 98 3f 2d 07 21 c8 7b 75 98 3f
       0.023578437806063533 0.023885664071946856
0003b0 12 1a 21 41 75 c4 98 3f 08 5f 7c f3 c8 11 99 3f
       0.024186927890946626 0.024481906758494737
0003c0 c4 f1 ae 1c 61 5d 99 3f 83 9e 07 df 27 a7 99 3f
       0.024770276427931184 0.02505171107068672
0003d0 7b 49 71 44 07 ef 99 3f 49 f6 44 41 e9 34 9a 3f
       0.025325883438492163 0.02559246502754878
0003e0 39 24 24 b7 b7 78 9a 3f 27 33 db 77 5c ba 9a 3f
       0.025851126244593046 0.026101536574788
0003f0 46 83 4b 48 c1 f9 9a 3f 79 01 5d e3 cf 36 9b 3f
       0.026343364751372243 0.026576278926996964
000400 16 d0 f6 fc 71 71 9b 3f 89 bb fe 44 91 a9 9b 3f
       0.02679994684667982 0.027014036022304153
000410 91 28 5f 6a 17 df 9b 3f 6b 29 13 1e ee 11 9c 3f
       0.02721821390859042 0.027412148080466475
000420 b8 65 38 16 ff 41 9c 3f 4e 80 26 11 34 6f 9c 3f
       0.027595506411761866 0.027767957255150848
000430 e4 a4 8b d8 76 99 9c 3f 0f e7 8d 44 b1 c0 9c 3f
       0.02792916962326765 0.028078813370917163
000440 91 1a f1 3e cd e4 9c 3f bd cc 40 c6 b4 05 9d 3f
       0.028216559378302867 0.028342079735193638
000450 80 05 fe f0 51 23 9d 3f dd 75 d0 f0 8e 3d 9d 3f
       0.028455047925949994 0.02855513901532968
000460 48 b9 ba 15 56 54 9d 3f 11 4e 51 d1 91 67 9d 3f
       0.028642029834992117 0.02871539917062022
000470 e4 e8 f3 b9 2c 77 9d 3f 3f c6 08 8e 11 83 9d 3f
       0.028774927949577825 0.028820299429020087
000480 e4 9c 39 37 2b 8b 9d 3f b5 d2 b1 cd 64 8f 9d 3f
       0.028851199384374207 0.028867316298106533
000490 01 96 5d 9b a9 8f 9d 3f cc 7b 29 1f e5 8b 9d 3f
       0.02886834154869256 0.02885396959970503
0004a0 f6 43 42 10 03 84 9d 3f 3a 63 54 61 ef 77 9d 3f
       0.02882389818893568 0.028777828517465333
0004b0 b3 f2 ca 43 96 67 9d 3f 84 a4 0d 2b e4 52 9d 3f
       0.028715465438596776 0.028636517646564844
0004c0 a5 5c bd cf c5 39 9d 3f 96 0c ef 32 28 1c 9d 3f
       0.02854069786493753 0.028427723034621787
0004d0 fd 70 64 a1 f8 f9 9c 3f 03 4f c2 b6 24 d3 9c 3f
       0.028297314501387828 0.02814919820282481
0004e0 67 d0 c3 60 9a a7 9c 3f 16 9c 6a e2 47 77 9c 3f
       0.02798310485464164 0.027798770136225746
0004f0 6e 49 2b d7 1b 42 9c 3f 89 cc 15 36 05 08 9c 3f
       0.027595934875372867 0.02737434523210117
000500 4b 79 f9 54 f3 c8 9b 3f d0 3b 84 eb d5 84 9b 3f
       0.027133752881462397 0.026873915195263554
000510 2c a4 5c 16 9d 3b 9b 3f d8 63 36 5a 39 ed 9a 3f
       0.02659459542261204 0.026295562869197514
000520 c1 db e0 a6 9b 99 9a 3f 39 59 4f 5a b5 40 9a 3f
       0.025976593075224267 0.025637467991907335
000530 3f a1 9a 43 78 e2 99 3f 24 69 fb a5 d6 7e 99 3f
       0.025277976156446554 0.02489791286539246
000540 5b 5c bd 3b c3 15 99 3f 64 4f 2a 39 31 a7 98 3f
       0.024497080346318572 0.024075287927714753
000550 2b 40 6d 4f 14 33 98 3f f4 c4 6c af 60 b9 97 3f
       0.023632352207016687 0.02316809721668718
000560 e3 8a 9c 0c 0b 3a 97 3f 2e 86 c5 9f 08 b5 96 3f
       0.022682354588264963 0.02217496371429755
000570 59 76 c4 29 4f 2a 96 3f 9e 61 3e f6 d4 99 95 3f
       0.021645771908075016 0.021094634561082175
000580 0c ab 4a de 90 03 95 3f e9 67 12 4b 7a 67 94 3f
       0.020521415298087084 0.01992598612978461
000590 3c 99 64 38 89 c5 93 3f 9d ef 3e 37 b6 1d 93 3f
       0.01930822760291416 0.018668028947771743
0005a0 a0 bf 4a 70 fa 6f 92 3f ae ce 4d a6 4f bc 91 3f
       0.01800528822303671 0.017319912457834867
0005b0 6c a0 8e 38 b0 02 91 3f 17 ee 2b 25 17 43 90 3f
       0.016611817790959924 0.01588092960717632
0005c0 e7 e3 cd 16 00 fb 8e 3f 98 64 c0 5b ce 63 8d 3f
       0.015127182670527218 0.01435052125457252
0005d0 79 ef 8c e9 92 c0 8b 3f 78 39 ef df 48 11 8a 3f
       0.013550899269482152 0.012728280385911658
0005e0 8c c8 25 b2 ec 55 88 3f d3 0e f9 2a 7c 8e 86 3f
       0.011882638155587232 0.011013956128528879
0005f0 e4 54 a4 70 f6 ba 84 3f ea d6 9f 08 5c db 82 3f
       0.01012222796684132 0.009207457555003146
000600 3d 7b 4b db ae ef 80 3f 91 15 f3 6e e4 ef 7d 3f
       0.008269659106586164 0.007308857267337558
000610 8d ae b1 ab 55 e8 79 3f 18 7a 7b b8 bd c8 75 3f
       0.0063250872145591665 0.005318394752718912
000620 12 e3 92 c1 2b 91 71 3f 9a 48 bc b3 63 83 6a 3f
       0.004288836405230938 0.003236479502342138
000630 59 a8 57 01 ca b4 61 3f df 45 c3 9c 74 6d 51 3f
       0.002161402265064044 0.001063693885090415
000640 a7 da ba 20 65 a5 0d bf 5c 8d 3d bd d3 a5 53 bf
       -5.654539935788976e-05 -0.0011992042318177054
000650 b5 53 de c5 00 5e 63 bf d5 c2 1e 76 92 17 6d bf
       -0.0023641600700536566 -0.00355127912276774
000660 95 1f 89 84 a8 7f 73 bf 6a 78 5e 3f 74 8a 78 bf
       -0.0047604162906011065 -0.005991415111479362
000670 df 48 46 5b ff ab 7d bf 31 12 43 da 0c 72 81 bf
       -0.007244107710351082 -0.008518314753367924
000680 3d 9b 8d 08 48 19 84 bf 3c 73 19 0f 96 cb 86 bf
       -0.009813845406552718 -0.011130497299001278
000690 f4 fe f9 36 da 88 89 bf 8b 88 cc 3a f6 50 8c bf
       -0.012468056490660719 -0.013826297444726762
0006a0 e4 6e ee 45 ca 23 8f bf b1 53 ee 79 9a 00 91 bf
       -0.01520498300470003 -0.01660386437614009
0006b0 80 72 de a7 89 74 92 bf 14 5a 08 6a a0 ed 93 bf
       -0.018022681113154082 -0.019461161109655192
0006c0 60 6b 49 b5 cb 6b 95 bf ff 93 1f b6 f7 ee 96 bf
       -0.020919020595424498 -0.022395964137007947
0006d0 c0 a5 c2 d0 0f 77 98 bf 9b 33 53 a1 fe 03 9a bf
       -0.02389168464347846 -0.02540586337709137
0006e0 d7 11 1f fc ad 95 9b bf 03 95 fb ed 06 2c 9d bf
       -0.02693816996885964 -0.02848826243907344
0006f0 8a a9 b5 bc f1 c6 9e bf a8 ed cb f3 2a 33 a0 bf
       -0.030055787222786935 -0.03164037920029311
000700 6a 31 03 14 0d 05 a1 bf ab a5 18 39 12 d9 a1 bf
       -0.033241661732605746 -0.034859246701965795
000710 7d 61 ee fa 2c af a2 bf 14 d2 9f 8f 4f 87 a3 bf
       -0.03649273455738731 -0.0381417143652564
000720 9b 22 fc cb 6b 61 a4 bf 5c cc 0b 24 73 3d a5 bf
       -0.03980576386499487 -0.04148444952979766
000730 a3 53 a1 ab 56 1b a6 bf aa 34 f5 16 07 fb a6 bf
       -0.043177326632452016 -0.044883939316244195
000740 5a 02 4d bb 74 dc a7 bf 05 b8 ad 8f 8f bf a8 bf
       -0.04660382067095688 -0.04833649281395939
000750 0f 3e 99 2d 47 a4 a9 bf f3 1f d7 d1 8a 8a aa bf
       -0.05008146697639059 -0.0518382435944317
000760 a4 71 48 5d 49 72 ab bf 66 e0 c6 55 71 5b ac bf
       -0.05360631240566541 -0.0553851525505145
000770 db ea 0e e7 f0 45 ad bf 25 3a b5 e3 b5 31 ae bf
       -0.05717423267875229 -0.058973011061074034
000780 90 15 27 c6 ad 1e af bf 2b f4 da d8 62 06 b0 bf
       -0.06078093570571774 -0.06259744448011932
000790 56 e8 d6 39 f5 7d b0 bf cb 96 3b 42 04 f6 b0 bf
       -0.06442196523758645 -0.0662539159489725
0007a0 05 90 61 04 86 6e b1 bf 80 79 61 69 70 e7 b1 bf
       -0.06809270483933012 -0.06993773052952257
0007b0 29 2e b5 31 b9 60 b2 bf 03 44 de f5 55 da b2 bf
       -0.07178838218276752 -0.07364403965608805
0007c0 c7 ee 11 27 3c 54 b3 bf 11 37 ea 0f 61 ce b3 bf
       -0.07550407365664134 -0.07736784590289526
0007d0 f6 7c 1c d5 b9 48 b4 bf 30 3c 35 76 3b c3 b4 bf
       -0.07923470929062035 -0.08110400806366225
0007e0 bd 07 59 ce da 3d b5 bf 01 b2 0a 95 8c b8 b5 bf
       -0.08297507798945865 -0.0848472465392618
0007f0 25 96 f6 5e 45 33 b6 bf 98 f6 c2 9e f9 ad b6 bf
       -0.08671983307302662 -0.08859214902892132
