Data/AdaptiveTimeStep/Basic/phis-a4-f10-w32.9-cycles10.npy (npy, 378704 bytes, 1 tensors)

array f8 [47322]
00000000: 0000 0000 0000 0000 ed2c 6310 7c9b 5e3e
00000010: 72e8 ad2a ad4d d33e 364c 4fb4 431d d43e
00000020: afb3 7125 f055 d53e daa0 ac07 4ec4 da3e
00000030: 6d4d cb9a 2868 e93e 96fa e542 d6a8 013f
00000040: b05e 11db 12bb 1a3f f24d f2f7 0bf1 293f
00000050: 0087 6c0d 6b11 383f 2473 4c2f 3e22 463f
00000060: 488b 9196 02d7 4b3f 16d1 821a a29f 513f
00000070: 9bbf 1f6b d6f6 563f 9411 38bd f6af 5e3f
00000080: f2c4 6dde 73fa 633f 5b1f 9938 59ee 693f
00000090: bf5a 564f 0f00 703f bbea adeb e682 733f
000000a0: 9dc8 fd15 aeb4 773f c505 880f 21ad 7c3f
000000b0: 51ee 0b90 743f 813f e417 7be4 f15e 843f
000000c0: 7264 c863 81ca 873f df8d 9b6b c86f 8b3f
000000d0: e5d5 93c8 5cd8 8d3f 980d d5c0 7f19 903f
000000e0: 9a32 2362 7e48 913f b35f 4e23 6d75 923f
000000f0: d35b fe6b a89e 933f f9ca 7fe3 c2c1 943f
00000100: 3a19 161e 62dd 953f b86d 0491 fded 963f
00000110: f583 5bed ebf2 973f ad30 85e7 fbe7 983f
00000120: c16a 71d0 66cc 993f 971c 63fb 4d9d 9a3f
00000130: 7c9b 12ed 7159 9b3f c905 8b7a 3bfe 9b3f
00000140: c115 9594 128a 9c3f 2c3b 9b21 3efa 9c3f
00000150: ddc0 d391 d74c 9d3f 0def b784 8b7f 9d3f
00000160: ba1f 7e82 0290 9d3f 8534 7d74 ff7b 9d3f
00000170: cf2f 565b 5d41 9d3f cfbd 3da1 26de 9c3f
00000180: 2bb5 63ef ad50 9c3f 3c61 71dc a297 9b3f
00000190: d96e b8ad 1db2 9a3f d138 1c64 ba9f 993f
000001a0: d8ac 3e27 ac60 983f e31d 513e edf5 963f
000001b0: c4ff eec3 4561 953f cf4f f274 79a5 933f
000001c0: 695d 1824 f3c5 913f f005 c048 718d 8f3f
000001d0: 4aea 3888 6e57 8b3f 33cd 58c4 a3f1 863f
000001e0: 7517 77f8 af62 823f 43e5 8533 bb61 7b3f
000001f0: cdf4 138a 8dc2 713f 39b6 9333 13c8 5f3f
00000200: 1659 df3e d23f 40bf 7459 f37b 9b45 68bf
00000210: f07f cb0c 6d58 76bf 56ee 1906 a450 80bf
00000220: ddb2 e7be 907c 85bf fee5 671e a8ac 8abf
00000230: b523 e569 bbdf 8fbf 496d dfae 6f89 92bf
00000240: 8446 5e54 e922 95bf fb19 94d0 fcba 97bf
00000250: 0aae bdc3 f451 9abf a427 3d39 92e6 9cbf
00000260: 6fb0 794d 7e79 9fbf 0f1d 5eaf b304 a1bf
00000270: f667 fb1a a94b a2bf 7d17 17ec d990 a3bf
00000280: a20f e353 fdd4 a4bf e92e da0b 1b17 a6bf
00000290: 3926 d87f 2f58 a7bf 4271 f538 f596 a8bf
000002a0: e3e7 eaaa c7d4 a9bf 14fa 7316 f40f abbf
000002b0: 2e78 1341 574a acbf 23a4 170f ab81 adbf
000002c0: 4a8f 38a9 76b8 aebf 5d18 3d78 b5eb afbf
000002d0: cf6c 7d5d 638f b0bf 7a23 c741 dc26 b1bf
000002e0: 185d 7c8c 79be b1bf a078 1c58 b253 b2bf
000002f0: 045a cfe2 59e9 b2bf ed5c fee1 3a7c b3bf
00000300: 5cc7 cc13 790f b4bf 680c 569e 4da0 b4bf
00000310: 997a 2296 5e31 b5bf ed31 ea1f eebf b5bf
00000320: b6e4 4df2 8d4e b6bf 69f4 7bce f5da b6bf
00000330: 3fb2 efed 4e67 b7bf 871c 1bb5 5ef1 b7bf
00000340: f657 57eb 387b b8bf 2b84 7168 0603 b9bf
00000350: 96bc fb8f 818a b9bf dbdc 3a92 e20f babf
00000360: 7cb7 c2eb cd94 babf aba6 e32d d017 bbbf
00000370: 8f70 6b1b 419a bbbf fa25 f176 bd1a bcbf
00000380: fbf0 0e5c 879a bcbf a7fc 3873 8318 bdbf
00000390: 9ad3 08d6 b195 bdbf 4416 e3b0 0711 bebf
000003a0: 91cd 0a16 708b bebf 15ee 477c 1d04 bfbf
000003b0: da73 ef30 c27b bfbf 7cc5 fe28 a1f1 bfbf
000003c0: 0a95 263b 2c33 c0bf 304e 6087 af6c c0bf
000003d0: b835 342f 91a5 c0bf bd20 b4b8 94dd c0bf
000003e0: f0ac e73b e714 c1bf 4692 1710 624b c1bf
000003f0: 7569 48a4 1d81 c1bf 0aaf a4d8 fab5 c1bf
00000400: 7159 f137 09ea c1bf d2b5 2b8b 3b1d c2bf
00000410: e6f2 da27 904f c2bf 71de 1155 ff80 c2bf
00000420: c9e4 a7d9 80b1 c2bf 51ea 0f6b 0de1 c2bf
00000430: b091 b59e 9e0f c3bf 2a5a c182 2e3d c3bf
00000440: 0813 9543 b769 c3bf c6c6 67f2 3295 c3bf
00000450: 2bd1 d166 9bbf c3bf d136 bd30 eae8 c3bf
00000460: 98e4 b492 1811 c4bf 21db e67f 1f38 c4bf
00000470: c7ea 979b f75d c4bf 5d80 2639 9982 c4bf
00000480: 8c9c 605c fca5 c4bf fd5d 32ba 18c8 c4bf
00000490: 8c27 c5b9 e5e8 c4bf 47a5 2876 5a08 c5bf
000004a0: 06e3 9bc0 6d26 c5bf ad02 8a23 1643 c5bf
000004b0: 1df6 4ce6 495e c5bf eab8 c811 ff77 c5bf
000004c0: e56b f275 2b90 c5bf 6f08 58b0 c4a6 c5bf
000004d0: 52d9 be33 c0bb c5bf bb44 f050 13cf c5bf
000004e0: 937e cd40 b3e0 c5bf d72d c32f 95f0 c5bf
000004f0: 2d97 b54a aefe c5bf 4519 7ccd f30a c6bf
00000500: 6345 ff12 5b15 c6bf 252f 07a7 d91d c6bf
00000510: 4142 bf59 6524 c6bf aca3 e954 f428 c6bf
00000520: 07a5 ad32 7d2b c6bf cd0b db15 f72b c6bf
00000530: 1e19 67c3 592a c6bf 90e7 d0bc 9d26 c6bf
00000540: e972 08cf be20 c6bf 1e66 b594 b818 c6bf
00000550: 560c 5686 8a0e c6bf 7409 3c87 3102 c6bf
00000560: c521 3942 b1f3 c5bf e898 b96d 07e3 c5bf
00000570: d8f6 dccc 3cd0 c5bf 0d52 6d07 4fbb c5bf
00000580: d887 d1fd 4ca4 c5bf b342 79e2 328b c5bf
00000590: 217b 5ef6 1670 c5bf ea77 5df1 f152 c5bf
000005a0: 480f d123 e333 c5bf ebb6 af04 dd12 c5bf
000005b0: 2a3b 604e 0af0 c4bf 2e5a ab7d 53cb c4bf
000005c0: 6a17 8e13 f2a4 c4bf 389a f29c bf7c c4bf
000005d0: ffd5 4a2e 0953 c4bf de61 5fc9 9227 c4bf
000005e0: c14a ebde c3fa c3bf 8134 4214 42cc c3bf
000005f0: 13f3 5dab 989c c3bf ef00 cd25 436b c3bf
00000600: 389f f496 fd38 c3bf 0084 a5a5 0905 c3bf
00000610: 0c38 0ede 65d0 c2bf b85c a923 059a c2bf
00000620: 3b16 a735 4063 c2bf 1a7a 157b d32a c2bf
00000630: 9014 2df0 f9f1 c1bf 32bc e671 84b7 c1bf
00000640: 0ed3 ab32 e67c c1bf 8b57 f2bd c240 c1bf
00000650: c79c f2d1 6a04 c1bf ba26 aa9b 99c6 c0bf
00000660: 3879 562a ce88 c0bf 2e97 eaa1 9e49 c0bf
00000670: 775d 326f 660a c0bf 9e3d fd0d ab93 bfbf
00000680: 1830 6dd6 d912 bfbf 55f8 dffa 7d8f bebf
00000690: 2f2d f495 520c bebf db87 c8cf b186 bdbf
000006a0: 2d3a 4d13 9301 bdbf 1b3e 6001 227a bcbf
000006b0: b6e7 07aa 11f3 bbbf ffb8 019c c269 bbbf
000006c0: 701d 53f6 17e1 babf 4e84 1d10 4e56 babf
000006d0: 8dfd ccb6 07cc b9bf 8302 fa1e b43f b9bf
000006e0: e96e 6023 1cb4 b8bf 4a24 3011 9326 b8bf
000006f0: 652f e843 a699 b7bf d90e 3fe1 d80a b7bf
00000700: c134 0a1f d67c b6bf d583 4cf5 0bed b5bf
00000710: cf9c 8d2a ef5d b5bf 6a4c fa1b 1acd b4bf
00000720: 24c8 60a0 183d b4bf 8fde 7369 75ab b3bf
00000730: 1854 4ad0 8a1a b3bf 1efd c365 0c88 b2bf
00000740: 0990 00e5 65f6 b1bf 6684 79c5 3f63 b1bf
00000750: 8a31 08e6 d8d0 b0bf 14dd 5339 ff3c b0bf
00000760: b518 d772 fc53 afbf 3262 ca21 392b aebf
00000770: 7c1f 6937 fa03 adbf 868b c7a9 11da abbf
00000780: 9988 7964 d6b1 aabf fa52 9c29 1287 a9bf
00000790: 4c61 685d d25d a8bf 603a 008a 1f32 a7bf
000007a0: ee96 7da1 1108 a6bf da64 8c35 aedb a4bf
000007b0: 32f7 34af cab0 a3bf 9d7e cb03 a683 a2bf
000007c0: 2f87 4abd 1a58 a1bf 77d8 0910 692a a0bf
000007d0: 0243 8db4 5efc 9dbf 9680 916d c49f 9bbf
000007e0: 833a b39d 4146 99bf 67f2 7895 c8e8 96bf
000007f0: a4b3 bfee 2a8e 94bf 695b 9983 ba2f 92bf
0.0 2.8505327009231932e-08 4.602294818018437e-06 4.795626243630929e-06 5.086826227002177e-06 6.381706152670992e-06 1.211493948841707e-05 3.368286012327586e-05
0.00010196974359765842 0.00019791861629823954 0.0003672491415490503 0.0006754687916302499 0.0008496058118335559 0.0010756571810307028 0.0014016241007048572 0.001873007732570907
0.002438761049625365 0.0031654112433762544 0.003906307033864464 0.0047635097824875695 0.005787544272481207 0.007001046317328845 0.008421812673524405 0.009946718011075668
0.011616717202786318 0.013396802696155894 0.014572834845675462 0.015722271103425806 0.016878103961789216 0.01802607086173653 0.019159919349103504 0.02027039063973299
0.021352322660754576 0.022392236686852945 0.023387609827185647 0.024322448736072633 0.025193792793610784 0.025990694492773327 0.02670839318730199 0.027337006906923898
0.027870455092189553 0.028298350144548554 0.028613441730102152 0.028806858039373263 0.02886966630424557 0.028793326840333328 0.028569658946750395 0.0281911884225659
0.027651517616438397 0.026945633606687766 0.02607008335881642 0.025023376808399448 0.0238062762215748 0.022422511032599856 0.02087887771972398 0.01918592239651656
0.017356680944513956 0.015406498940140317 0.0133503566095118 0.011203078679591449 0.00897729374890919 0.006685000662735976 0.004335930717613579 0.0019397914423352604
-0.0004958893384763598 -0.0029628788757733397 -0.005455423332676887 -0.007966309963413892 -0.010491495920143585 -0.013024629047310828 -0.015563453835641153 -0.018102402733217535
-0.02064098908846869 -0.02317423842489495 -0.025703262755469004 -0.028223309272369726 -0.03073689792510986 -0.03323899760931159 -0.035733494323451895 -0.038214502400974994
-0.04068748139391622 -0.04314503211671001 -0.04559467731094142 -0.048026717379544795 -0.050451507200207656 -0.0528560902985086 -0.05525467557320983 -0.05762991484864013
-0.06000109496770152 -0.06234519093281741 -0.06468792946309353 -0.06699921232133291 -0.06931266479329101 -0.07158960963394856 -0.07387315547325818 -0.07611434953138359
-0.07836109860798274 -0.08057103267315002 -0.08278456845662631 -0.08495987204714313 -0.08713614621764773 -0.08927856722944373 -0.09142010983459502 -0.0935267631676756
-0.09563022370943472 -0.09770240831268555 -0.09976968541353623 -0.10180488653246604 -0.10383307462572405 -0.10583211059897717 -0.1078224842016786 -0.10978302148682664
-0.11173292157667795 -0.1136552959733189 -0.1155654094262232 -0.11744735783130361 -0.11931515253200177 -0.12115654262736826 -0.12298215574942564 -0.12478072405681034
-0.12656166923731177 -0.1283168231026237 -0.1300527077186595 -0.1317621137498061 -0.13345041680381753 -0.13511300836320767 -0.13675280114768965 -0.13836608484540874
-0.13995471221523872 -0.1415171079201359 -0.1430530733686261 -0.14456168798254823 -0.1460419714710837 -0.14749305465359666 -0.14891417264437967 -0.1503046167806173
-0.1516636924735837 -0.15299069248390235 -0.1542848827408617 -0.15554549579467516 -0.15677172816666451 -0.15796273942188413 -0.15911765191397917 -0.16023555079027832
-0.16131548414816554 -0.16235646335256596 -0.1633574635582672 -0.16431742448302541 -0.16523525147183465 -0.16610981688792972 -0.16693996186397522 -0.1677244984470641
-0.16846221217278337 -0.1691518651060195 -0.16979219938884654 -0.17038194133832527 -0.17091980613894417 -0.17140450317525222 -0.17183474204937835 -0.17220923932490897
-0.1725267260322126 -0.1727859559599604 -0.17298571474249694 -0.17312482973218601 -0.17320218061949097 -0.1732167107312236 -0.17316743889950542 -0.17305347175152663
-0.17287430867226952 -0.17262942563211053 -0.17231875953084125 -0.1719419393849183 -0.1714994023661928 -0.17099087579408168 -0.17041740420420726 -0.16977870810173137
-0.16907656091194556 -0.16831050928387511 -0.16748320607890668 -0.16659378323942003 -0.16564597367152545 -0.16463816384150873 -0.1635754473395193 -0.16245502124975658
-0.1612837405665986 -0.16005702174625625 -0.15878405342452592 -0.15745768387456754 -0.15609024414751185 -0.15467096318426246 -0.153216441798485 -0.151710885484142
-0.15017671461941418 -0.14859123790941453 -0.1469847997909145 -0.14532531968391083 -0.14365389461288366 -0.14193194875674991 -0.14019703128193273 -0.13841300546252594
-0.13662412141970787 -0.13478884005297362 -0.13294730426171084 -0.13106079197705417 -0.12917496745371593 -0.127246693669059 -0.12531738690880065 -0.12334698764356353
-0.12138139233610479 -0.11937701582789491 -0.11737552796346472 -0.11533652613482508 -0.11330527516586449 -0.11123859914391014 -0.10917768860954777 -0.10708252247579607
-0.10499715579782332 -0.10287940877380317 -0.10076950276287829 -0.09862828975929898 -0.09649825919808176 -0.0943385998690626 -0.09218825490841949 -0.09000926493814222
-0.08784235246476425 -0.08564829577200268 -0.0834645728005967 -0.08125460799264919 -0.07905725398521263 -0.07683500122572638 -0.07462375245297925 -0.07238843426238303
-0.07016598549722643 -0.06792067118796438 -0.06568675628677148 -0.0634307398757879 -0.061187638300496706 -0.058923516630958864 -0.056670970214837774 -0.054398109412225046
-0.052138042225821475 -0.049858634547637906 -0.047590803053199154 -0.045304284663974626 -0.04303031059570893 -0.04073852924029504 -0.038458188903389603 -0.036160648310894696
-0.033875308615519344 -0.0315735656812856 -0.02928302742958789 -0.0269766513705468 -0.02468206906342597 -0.022372373698305383 -0.020073576757500114 -0.01776019504753937
