Data/AdaptiveTimeStep/Basic/phis-nsteps4000-a4-f10-w32.9-cycles10.npy (npy, 379480 bytes, 1 tensors)

array f8 [47419]
0	0x0000000000000000	0.0
1	0x3e5e9b7c10632ced	2.8505327009231932e-08
2	0x3ed05673eda6f803	3.895212751845944e-06
3	0x3ed1447552f4bc72	4.116872602196515e-06
4	0x3ed296a4e88a3ede	4.431832743137275e-06
5	0x3ed781d1b5f1f376	5.6045308546276995e-06
6	0x3ee4e5632bf83ec7	9.964010472734455e-06
7	0x3ef8e079c30a082d	2.3724420489042316e-05
8	0x3f0fd43b55e7d4a4	6.0709057596066985e-05
9	0x3f23e43013a285ab	0.0001517590224624892
10	0x3f2e8e535209d467	0.0002331234654950082
11	0x3f370547dab2c49f	0.00035126690154203307
12	0x3f41c6575e7a134b	0.000542442951840452
13	0x3f4c2ebb0f85b169	0.0008600629217148495
14	0x3f525da76382f8aa	0.0011209616332475227
15	0x3f57cdd282c325b7	0.0014528804559169447
16	0x3f5f9b6a7d1a183f	0.0019291438988218305
17	0x3f64d9c3aebe3502	0.002545244400556813
18	0x3f6a9db9f1a8ecc0	0.003249037906497415
19	0x3f70ed400f6bcba0	0.004132509455973571
20	0x3f757d68da3e0125	0.005246553020583887
21	0x3f7b2dc47c89ddc9	0.006635444188411063
22	0x3f80ad49b7f4737e	0.008143020559651989
23	0x3f84208fb4fd4b44	0.009827730856761037
24	0x3f87f0704b992cd8	0.01168906908710314
25	0x3f8bf17ed7bfc9db	0.013644209822790401
26	0x3f8d69c63a81a1de	0.014361904774163155
27	0x3f8ec9d13a2db16d	0.015033373439756937
28	0x3f9018fa094aeab4	0.01572027856557652
29	0x3f90d38a0be067cf	0.0164319581745998
30	0x3f9193164afeeec6	0.017162655188925034
31	0x3f925532f0e344f0	0.01790313334715149
32	0x3f93172b3d55d605	0.018643069857224876
33	0x3f93d7a00d12a57f	0.0193772323588397
34	0x3f94961137835d3f	0.020103711140874166
35	0x3f95518593ab7805	0.02081879342846806
36	0x3f96099f6383e65d	0.021521082352569432
37	0x3f96bd8abcb97798	0.022207420128658478
38	0x3f976cbff4f5734e	0.02287578518495375
39	0x3f9816744a1334c9	0.023523156186276126
40	0x3f98ba09cb5ab011	0.02414717963863217
41	0x3f9956c944e7bb3b	0.02474512560905427
42	0x3f99ebf740d9b2cc	0.025314200719025945
43	0x3f9a78d6f68c4d9b	0.02585159187135631
44	0x3f9afcab51b224ca	0.02635448156482737
45	0x3f9b76b725aa78f7	0.02682005088228664
46	0x3f9be63cf3111b93	0.027245476089116826
47	0x3f9c4a7eb24490c0	0.02762792552052029
48	0x3f9ca2bdb6a706a4	0.027964557908268475
49	0x3f9cee3ab700e023	0.028252522868769014
50	0x3f9d2c360e7a48a8	0.02848896468510334
51	0x3f9d5bf041d1a49c	0.02867103006102366
52	0x3f9d7caac2a29720	0.028795879487595433
53	0x3f9d8da8de7bc246	0.028860701159773926
54	0x3f9d8e30c8e815e6	0.02886272646175838
55	0x3f9d7d8cba225c55	0.028799246655207906
56	0x3f9d5b0c27110ac2	0.028667631039079884
57	0x3f9d2614dcf7e7ab	0.028465581881370088
58	0x3f9cde086912574d	0.02819073811823296
59	0x3f9c826d7023ff1a	0.027841291398544056
60	0x3f9c12b97cf09135	0.027415178538050717
61	0x3f9b8e9a722aab9f	0.02691117593591807
62	0x3f9af59afd5e89b8	0.026327535356935633
63	0x3f9a47987e7b9163	0.025663740844622206
64	0x3f99842d7ece3a4f	0.024918280472372264
65	0x3f98ab77feca3b65	0.02409160130133205
66	0x3f97bd1ccbbaeb0c	0.023182344374371985
67	0x3f96b98c736c27a6	0.02219218687518034
68	0x3f95a07463ee8eec	0.02111989841399879
69	0x3f94728ff0550646	0.019968270343502924
70	0x3f932f8b0b965774	0.018736050207358315
71	0x3f91d8556efd7980	0.01742681016855263
72	0x3f906c808a41a85c	0.01603890270090634
73	0x3f8dda85beb6bd8f	0.014576954729675488
74	0x3f8ab3f56ce6ebb1	0.013038556466986014
75	0x3f8768ae57a0cb4d	0.011430131959149792
76	0x3f83f6db66b00979	0.009748186179426398
77	0x3f8062ec4fb7c0d4	0.00800118082312943
78	0x3f7954c07ad1c056	0.006184341310572069
79	0x3f71a4d637814542	0.004307591232718013
80	0x3f635ef42874c425	0.0023646134101445054
81	0x3f3808696f03d609	0.00036671232284332715
82	0xbf5bc3aaf49a30b9	-0.0016946000563704945
83	0xbf6f2c71302ec515	-0.003805371351938045
84	0xbf787bb59e710b25	-0.005977353524090377
85	0xbf80c720ca3d2425	-0.00819230668243349
86	0xbf856f6ce3138ce4	-0.010466433219738787
87	0xbf8a2a879dd546fc	-0.012776431564506911
88	0xbf8f03a2f90865c7	-0.015143655037763616
89	0xbf91f5ec1c206390	-0.017539681641298766
90	0xbf9478bb500785f4	-0.019991804847341713
91	0xbf970122fb224cf3	-0.022465273454668155
92	0xbf9997872188f299	-0.024992095395861644
93	0xbf9c32e915e0dec4	-0.027537958107329855
94	0xbf9edb374d2865c3	-0.030133117756212757
95	0xbfa0c3f6e843e8ae	-0.03274509034413718
96	0xbfa220371cca0939	-0.03540203310423568
97	0xbfa37e77c2299ec8	-0.038074247790800764
98	0xbfa4e207637069a0	-0.040786963356555406
99	0xbfa6475c2d471514	-0.043513184096392404
100	0xbfa7b164e6211ea3	-0.046275284854855124
101	0xbfa91cf7ff791aa7	-0.0490491389614836
102	0xbfaa8ca3eda3bc68	-0.05185425067781396
103	0xbfabfd8e24085b6c	-0.054668847940937265
104	0xbfad71f4fad57dfa	-0.05751004754960927
105	0xbfaee75dac21f66b	-0.06035893179158055
106	0xbfb02fd3ca1e2656	-0.06322978672519616
107	0xbfb0ec6461a4d969	-0.0661070574177295
108	0xbfb1aa16c0a75a03	-0.06900160029849904
109	0xbfb2682b4ab24b85	-0.07190199445385133
110	0xbfb327114096abb0	-0.07481487109059404
111	0xbfb3e646eba39688	-0.07773249867349297
112	0xbfb4a5fa485db34e	-0.08065761820553272
113	0xbfb565da5b243b14	-0.0835854027284138
114	0xbfb625e13961c0f6	-0.08651549960064017
115	0xbfb6e5dfe96bbc91	-0.08944510887862324
116	0xbfb7a5ab3e29357a	-0.09237165706254827
117	0xbfb86515a4a3c30f	-0.09529242772601897
118	0xbfb923f394778365	-0.09820482611349986
119	0xbfb9e21c307a598f	-0.10110641654532614
120	0xbfba9f68e27c4436	-0.10399489907673928
121	0xbfbb5bb4cb2cd41b	-0.10686807594613905
122	0xbfbc16dc1507c936	-0.10972381127775041
123	0xbfbcd0bb0d62f45b	-0.11255997731036997
124	0xbfbd892cfea2fbd6	-0.11537438599314895
125	0xbfbe400aef3da7cd	-0.11816471424904691
126	0xbfbef52a885a9903	-0.12092843846275873
127	0xbfbfa85d6fde882e	-0.12366279584105719
128	0xbfc02cb8a8185c26	-0.1263647862221841
129	0xbfc084184fb1d36a	-0.12903121844615423
130	0xbfc0da3201126722	-0.13165879299486344
131	0xbfc12ee9fa335e41	-0.13424420086697533
132	0xbfc1822521019de4	-0.13678421126972673
133	0xbfc1d3c96c0b7879	-0.13927572036385863
134	0xbfc223bdcc1abf14	-0.14171574083365412
135	0xbfc271e9899bdc14	-0.1441013261716938
136	0xbfc2be332e11cced	-0.1464294409703152
137	0xbfc3087f3428c993	-0.14869680449335174
138	0xbfc350aecd686cae	-0.15089974431689285
139	0xbfc3969f0ac12a73	-0.15303409600376802
140	0xbfc3da289b06d601	-0.1550951725927661
141	0xbfc41b202654157d	-0.15707780715471734
142	0xbfc459571ddf624e	-0.15897644957182638
143	0xbfc4949cb69d0d53	-0.16078528324770022
144	0xbfc4ccbebeeba4fa	-0.16249832460679398
145	0xbfc5018a15fcca91	-0.1641094786987947
146	0xbfc532cab459551c	-0.16561254316426577
147	0xbfc5604b5f18e1e0	-0.1670011724797993
148	0xbfc589d53c0609aa	-0.16826882773245916
149	0xbfc5af2f83ff79c5	-0.16940874047482005
150	0xbfc5d01f8352a9f7	-0.17041391288996952
151	0xbfc5ec68fd7ca0bc	-0.17127716424261574
152	0xbfc603ceedf13017	-0.1719912206484657
153	0xbfc616148c6025ce	-0.17254883627201284
154	0xbfc622fe7596d75e	-0.1729429315725452
155	0xbfc62a53e12ce3b9	-0.17316673750772596
156	0xbfc62bdfd91530da	-0.17321394061799006
157	0xbfc6277273118b9d	-0.17307882898884666
158	0xbfc61ce21003d1a3	-0.1727564409444656
159	0xbfc60c225b8c6097	-0.1722453066838667
160	0xbfc5f52b83f2d728	-0.17154449408342853
161	0xbfc5d810f2f6cda7	-0.17065631736259698
162	0xbfc5b4dd23a85bfb	-0.16958202591987956
163	0xbfc58bc1d4a00f25	-0.16832754976359712
164	0xbfc55cd70a106e5f	-0.16689575187125436
165	0xbfc5286a20e3eca1	-0.16529585462544552
166	0xbfc4ee949e2a43d4	-0.1635309002199664
167	0xbfc4afbd046edbc1	-0.16161310879189553
168	0xbfc46bf0c64932b0	-0.15954408342294846
169	0xbfc423b1c11f09b3	-0.15733930520771153
170	0xbfc3d6f6b6c41c79	-0.15499767231105802
171	0xbfc38660abd741c5	-0.15253837958017705
172	0xbfc331c7258c1c01	-0.14995660146107073
173	0xbfc2d9eb7fd11f37	-0.1472753881555435
174	0xbfc27e7ca99a04ce	-0.14448507577257036
175	0xbfc2205e526620cd	-0.14161280654321332
176	0xbfc1bf0ae36c2016	-0.13864265541656157
177	0xbfc15b9254eb5975	-0.1356070437092957
178	0xbfc0f52a04a539f5	-0.13248181559397634
179	0xbfc08d230247dc0c	-0.12930715190279363
180	0xbfc02255372510fa	-0.12604775612465585
181	0xbfbf6ce34e57a1aa	-0.1227552477136046
182	0xbfbe8f9ff3ab006d	-0.1193790407078283
183	0xbfbdb153c96ae833	-0.11598704974576961
184	0xbfbccd520418a4e7	-0.11250794029242038
185	0xbfbbe987b78bf2e5	-0.10903213721389766
186	0xbfbaff79e9a857d0	-0.10546075777560238
187	0xbfba1712d6cc9e9d	-0.10191457504390163
188	0xbfb928cce61ecf7f	-0.09827881448910424
189	0xbfb83b6224eceef3	-0.09465611840726833
190	0xbfb7485e7b94cdee	-0.09094801442261488
191	0xbfb6573c6e9b1f38	-0.08726861667957742
192	0xbfb560ffa47800b1	-0.0835113312277851
193	0xbfb46bf88a52637f	-0.07977250458715267
194	0xbfb37214ab255f83	-0.0759594838940512
195	0xbfb27a5a146ccb95	-0.07217944143921635
196	0xbfb17e2f60fcd4e4	-0.06833168142187024
197	0xbfb0839db98037be	-0.06450830248669967
198	0xbfaf09a3322c813a	-0.06062040317033497
199	0xbfad10e54e1d5b59	-0.056769529138071824
200	0xbfab106e6eb158e6	-0.052859736454296244
201	0xbfa913c876d93bb1	-0.04897905779636547
202	0xbfa70fc82258a8a2	-0.04504228038088455
203	0xbfa510f2d5838ffb	-0.041144932330809035
204	0xbfa30b66bb2dc569	-0.03719635996720678
205	0xbfa10a08e3186800	-0.033279683801268334
206	0xbf9e0490fbdd1591	-0.02931429421666604
207	0xbf99ff8bcb3bc44b	-0.025388893393884875
208	0xbf95eede1ffaee51	-0.02141902036849636
209	0xbf91e6c081fd78e9	-0.017481811460464156
210	0xbf8ba72025f81b90	-0.013502360495307092
211	0xbf8394fb2b0591d4	-0.009561502695483982
212	0xbf76dd3cac811804	-0.005582081801611242
213	0xbf5ac5794423e855	-0.001633995460507372
214	0x3f6341b830daaf9a	0.0023506734349520554
215	0x3f79cdee03723975	0.006299905529102969
216	0x3f850f007c7a4c93	0.010282520102270964
217	0x3f8d280ec1769822	0.014236560133962742
218	0x3f92a8d757331450	0.018222202965962275
219	0x3f96b5590c998c11	0.022176162141828885
220	0x3f9ac966e4a99640	0.026158912378738686
221	0x3f9ed6aa6476b539	0.030115759260003847
222	0x3fa17586556e765c	0.034099767616891014
223	0x3fa37bed92486679	0.03805487070731046
224	0x3fa5859040b7dc17	0.0420346335412704
225	0x3fa78bf7d3aba31e	0.04598974665515797
226	0x3fa99567f0b728ec	0.04996800244733088
227	0x3fab9b30c53b00e3	0.05391838462446843
228	0x3fada3b6b480102b	0.05788966134426262
229	0x3fafa8f9d4a246b0	0.0618360588133674
230	0x3fb0d8651f926a82	0.06580192585753689
231	0x3fb1da7964373e1d	0.06973990151095007
232	0x3fb2ddb235fd8039	0.07369531458016433
233	0x3fb3df4272e8889a	0.07762542062167413
234	0x3fb4e1e0b11f6155	0.08157162021905624
235	0x3fb5e2b3e8b0a6c9	0.08549045973691273
236	0x3fb6e4762362b4df	0.08942354549317909
237	0x3fb7e49e864e3c43	0.09333220271058544
238	0x3fb8e5a0830920fa	0.09725382994759349
239	0x3fb9e4fb7eb4011a	0.10115024417246268
240	0x3fbae5139eb6c1ee	0.10505793213702194
241	0x3fbbe3bc9327da44	0.10894373505275562
242	0x3fbce30e1374bf79	0.11283958411217822
243	0x3fbde0f0e75a1f6c	0.11671357773059093
244	0x3fbedf61c79fd50d	0.12059603809014537
245	0x3fbfdc981090ba34	0.12445974735667492
246	0x3fc06d242908906d	0.12833072665773973
247	0x3fc0eb5ee8e96255	0.13218294499053465
248	0x3fc169ca2799a087	0.13604094441985046
249	0x3fc1e7aa5850675c	0.13988236725054548
250	0x3fc265b12e12e864	0.14372839688968775
251	0x3fc2e327b5b4dd5d	0.14755722401035146
252	0x3fc360b909c04bdc	0.15138924575930346
253	0x3fc3ddc358e7ef19	0.15520517197716613
254	0x3fc45adece7706ac	0.1590231426362626
255	0x3fc4d769dc682b79	0.16282389890724483
