Data/AdaptiveTimeStep/Basic/phis-nsteps4000-a4-f10-w32.9-cycles10.npy (npy, 38640 bytes, 1 tensors)

array f8 [4814]
00000000: 0000 0000 0000 0000 ed2c 6310 7c9b 5e3e
00000010: 6f41 3c67 6814 003f 76d0 cb78 73c0 013f
00000020: 8879 5bd0 c7ed 033f 2b32 d014 dfee 093f
00000030: e706 0bf4 8f54 153f 42ca e39f 17ba 243f
00000040: ca47 ec8b 15ad 343f 2f90 ee5c c17e 433f
00000050: b528 b1a2 00f2 503f 5175 48b1 3533 5b3f
00000060: 32d8 6290 6b64 643f 29c1 140d 8aed 6c3f
00000070: 370f 970d df9d 733f 5868 39b3 7aa3 793f
00000080: 9a9d a5ea 233d 803f c93d 1a53 f306 843f
00000090: 9513 c4cf c21f 883f 2d5a ca20 7f74 8c3f
000000a0: b26b 806a ee76 903f 8c8b 0f33 7cb8 923f
000000b0: b3ae 6c56 a7ef 943f 952a f7d2 e60b 973f
000000c0: db46 90d1 9cfb 983f 3c73 cdcf 31ac 9a3f
000000d0: 003e 87ea 820a 9c3f b187 b10c 2e03 9d3f
000000e0: 82ed a4b8 f382 9d3f 35ab 788a 1d77 9d3f
000000f0: d80b 7dff e9cd 9c3f b129 eba3 1577 9b3f
00000100: 6378 e6fa 6a64 993f 757b 3386 3a8a 963f
00000110: b587 7cfd 0ae0 923f 904d 333a e4c3 8c3f
00000120: cf2e 8f8a 7822 823f 186f d635 898a 673f
00000130: 8e4a 15a0 04c2 6fbf a22f 00b4 9f3d 87bf
00000140: bc39 6751 a7ee 93bf 6ac4 0169 99cd 9cbf
00000150: 7d69 0a19 a215 a3bf 6bf2 0609 b5fb a7bf
00000160: c28a 0afb 3c0c adbf 6dc4 6f59 c31c b1bf
00000170: 71e4 e286 eab9 b3bf 2f51 0bfb 0758 b6bf
00000180: debd 96ac a1f1 b8bf 3d11 eeeb 1a80 bbbf
00000190: 7886 e907 6efc bdbf 5bb5 04b4 bf2f c0bf
000001a0: 9043 94c0 3151 c1bf 59ab 0dec 5f5e c2bf
000001b0: 061f 362a 1c53 c3bf 54f3 b2b5 4f2b c4bf
000001c0: 4e20 abc3 ebe2 c4bf e05a 21dd e175 c5bf
000001d0: af65 d383 24e0 c5bf 7d67 32ee a81d c6bf
000001e0: 5051 f60b 772a c6bf 2656 b5c6 ce02 c6bf
000001f0: 9917 f2fd 58a3 c5bf e6d8 502d bc0a c5bf
00000200: f1af 4f31 5f39 c4bf afd3 39a5 7e30 c3bf
00000210: 7770 9181 77f3 c1bf b794 9660 3a86 c0bf
00000220: af59 f7e9 dad9 bdbf 230f 5a02 3656 babf
00000230: 0a6d 15bc 288b b6bf c28e e624 8e82 b2bf
00000240: 31cd 1281 438e acbf 1ee1 3cd1 7ebf a3bf
00000250: 489b e7fa e549 95bf f81a 9aeb 6b76 64bf
00000260: cad6 385f 3699 903f 67a6 c74f d50d a23f
00000270: 60b4 226a 2cf1 ab3f b052 c957 7af8 b23f
00000280: f117 3225 b702 b83f 36cb e57d 7915 bd3f
00000290: bdc9 4593 7816 c13f 808f 9ec0 6ba3 c33f
000002a0: 5dc8 7830 352f c63f 78c9 5517 a0b8 c83f
000002b0: 56c7 e353 713d cb3f 2893 520f 76bb cd3f
000002c0: e670 0b1c dd17 d03f c30a 8348 ba4b d13f
000002d0: 565f dd19 0b78 d23f f0e1 0381 8b9b d33f
000002e0: 3c85 1878 e4b4 d43f 037f de8d a1c2 d53f
000002f0: 0019 4f91 2ec3 d63f 10f7 1856 dbb4 d73f
00000300: 3faa 53f1 e295 d83f aa41 ad83 6e64 d93f
00000310: d5db 742c 8f1e da3f 3bb6 6766 36c2 da3f
00000320: 7ba4 9350 374d db3f f5ae 60f8 51bd db3f
00000330: a1e6 2cfc 4010 dc3f d351 fb1c c443 dc3f
00000340: 9185 f5c8 ab55 dc3f 36d7 91a7 ee43 dc3f
00000350: 7877 8539 cc0c dc3f 2484 073f b5af db3f
00000360: f12a 9313 9c2e db3f ef24 2c60 9a8a da3f
00000370: 1733 edac bbc7 d93f e5c4 fb92 8ce7 d83f
00000380: 318f fe40 62ef d73f 3d18 7c40 71e0 d63f
00000390: c214 4cd0 a9c0 d53f 9f5e 2770 2a90 d43f
000003a0: 67c3 0e55 0255 d33f d032 7f86 8c0d d23f
000003b0: 47f6 13ad 02c0 d03f 3567 df12 3ed2 ce3f
000003c0: 46b1 5738 751f cc3f c87a 5169 dc5d c93f
000003d0: a56e 1ea5 b09c c63f 69ba d9f3 51ce c33f
000003e0: 3525 edc9 9204 c13f 3131 91a2 b35a bc3f
000003f0: 3a2a 9c78 f3bc b63f c2ff d083 fc00 b13f
00000400: 3c9f 1ea6 ceba a63f 3a62 269a d47b 963f
00000410: d614 c478 1982 2cbf 408c 9739 a446 97bf
00000420: e36b 3315 4006 a7bf 6cd7 b0a0 9745 b1bf
00000430: 4bf4 4894 65fb b6bf 9c60 8178 31be bcbf
00000440: 22f7 9abd 4f39 c1bf 8bbe b635 c917 c4bf
00000450: d5c4 cc47 d6f0 c6bf af3d 26e0 55cc c9bf
00000460: 1e8c f4e6 8ea1 ccbf c39d 3d31 3177 cfbf
00000470: 5f02 b36a df23 d1bf 35bd e052 7a8b d2bf
00000480: 7cdd 83fe 0ef0 d3bf eb9e 00ed fc52 d5bf
00000490: 619c c67e 4ab3 d6bf b3e5 263a 0e11 d8bf
000004a0: bdf9 eae0 c66b d9bf 9cae 0808 f9c2 dabf
000004b0: 1133 f53a 3216 dcbf 2f5d c6ab 0f65 ddbf
000004c0: dd08 c72c 38af debf cba2 d61f 55f4 dfbf
000004d0: f4e2 4d08 079a e0bf db97 be92 0337 e1bf
000004e0: e6e6 d998 f0d0 e1bf cf07 4eff 9c67 e2bf
000004f0: 966a 47ef d5fa e2bf b141 3032 668a e3bf
00000500: 9d10 8161 1516 e4bf 0c66 8945 a79d e4bf
00000510: 3416 ca9b db20 e5bf db76 253f 6e9f e5bf
00000520: 98a0 717d 1719 e6bf 9977 5a5e 8c8d e6bf
00000530: 0c3f 90b6 7efc e6bf 5447 3a01 9d65 e7bf
00000540: dab2 f20e 92c8 e7bf 084e 6fa4 0425 e8bf
00000550: b53d 912b 977a e8bf 1391 54a2 e7c8 e8bf
00000560: 2dff 69f0 8f0f e9bf 818d d6b3 264e e9bf
00000570: 0676 f970 4084 e9bf a120 d9fd 70b1 e9bf
00000580: df26 3612 4dd5 e9bf a441 6214 6cef e9bf
00000590: 6b7b c75e 6aff e9bf a9cb e22e ec04 eabf
000005a0: d0a8 1c36 a1ff e9bf 74a8 6489 48ef e9bf
000005b0: 6107 2d0b d0d3 e9bf e814 8dc8 6cad e9bf
000005c0: 4a4a f587 3c7c e9bf 941e e494 bb40 e9bf
000005d0: 72df 4906 17fb e8bf bcb2 2d25 0dac e8bf
000005e0: ff9e e363 c753 e8bf db5a dcb2 45f3 e7bf
000005f0: e2fc d0c7 968a e7bf a238 28e0 f41a e7bf
00000600: 2cfa 392f 32a4 e6bf 5bd9 0616 bf27 e6bf
00000610: 2d61 2909 16a5 e5bf 51b2 c826 ed1d e5bf
00000620: 9a96 b8ad 5191 e4bf 3f92 f8cd 5701 e4bf
00000630: 73a8 5d0d 806c e3bf 0362 a924 57d5 e2bf
00000640: 3b51 80b9 a839 e2bf 71ab c96d a19c e1bf
00000650: 2f97 83b2 2efb e0bf 59c3 5190 5759 e0bf
00000660: b7ed 5e8e f865 dfbf da0d 14d6 8c1a debf
00000670: 5424 f40b 5cc6 dcbf ba20 34af 4a74 dbbf
00000680: ca1d ea1e 561a dabf aafd 19f4 c5c2 d8bf
00000690: 5482 5c55 1964 d7bf bc55 b5ab 3508 d6bf
000006a0: ab6f 4d6c f7a5 d4bf bc81 6ff0 3c46 d3bf
000006b0: ce9b b621 cbe0 d1bf e017 183e f77d d0bf
000006c0: 1f94 d929 1e2c cebf 95f1 4556 3b61 cbbf
000006d0: f9ac 5a41 498d c8bf 45bc d222 c0be c5bf
000006e0: ca5f 34c3 40e8 c2bf b677 f8a4 f916 c0bf
000006f0: 5076 5e97 5d7d babf b4ac 9936 a7d7 b4bf
00000700: c4db ea4a 9e4b aebf cdaf 5fb9 f3fb a2bf
00000710: 96d7 90ca 6f5d 8ebf 6fca 67db 91cb 7d3f
00000720: fc6d 484d 9c37 9e3f f9c6 ec67 806c aa3f
00000730: d27f 0468 dde5 b23f fdf1 3942 e68c b83f
00000740: 983d ad65 a939 be3f 4f63 c3c3 4bef c13f
00000750: fc0b bf82 ebc3 c43f c174 5881 8994 c73f
00000760: 415d 04de 9766 ca3f 9fa3 835b b034 cd3f
00000770: aa57 0fea c601 d03f 3516 154b 1567 d13f
00000780: edf2 6323 6fcc d23f 0185 bbc3 9e2f d43f
00000790: 435c 521a 8892 d53f f770 dc5e 28f3 d63f
000007a0: 4243 745d 2f53 d83f 21ef e8c3 eab0 d93f
000007b0: b465 9e8d bd0d db3f e4a5 1e3b 2e68 dc3f
000007c0: eb52 4d68 65c1 dd3f 622c bd32 3118 df3f
000007d0: fecb 408b ba36 e03f c849 832e 15e0 e03f
000007e0: 7bce bc04 8488 e13f 15bf 3eac 9d2f e23f
000007f0: 2e3f cbc9 a4d5 e23f 453b 2303 407a e33f
0.0 2.8505327009231932e-08 3.0669628271809124e-05 3.385879890585666e-05 3.8011226974654525e-05 4.946344652276656e-05 8.136871930288955e-05 0.0001581338728509786
0.00031549240149885956 0.0005949443965289676 0.0010342603880127259 0.001660158571332577 0.0024892903193985067 0.0035312362967020628 0.004789229680173971 0.006259421632046701
0.007929115866047099 0.009778882001483151 0.011779329267037212 0.013894074619469421 0.016078686952919426 0.01828188001298829 0.020445456170974107 0.02250633871680437
0.024397325793023988 0.02604749518228576 0.027383847774954617 0.02833244278406938 0.028819854874411195 0.028774701668378106 0.028129249781397053 0.026821458940313018
0.024797126353967146 0.022011675301537765 0.018432780953965017 0.014045508409629176 0.008854810455793864 0.002873676289437809 -0.0038766947115303546 -0.011348006897627109
-0.019465078681429424 -0.028128048929322004 -0.03727442317650096 -0.046842248298592924 -0.056733995098758 -0.06684513982306024 -0.07705560486910358 -0.08728074912079785
-0.0974370046958408 -0.1074234796524864 -0.11713302319687979 -0.12645717897377548 -0.13529035475997064 -0.1435050871471855 -0.15097381650070235 -0.15757175800345158
-0.16317507795452219 -0.16765998170259078 -0.17090279042058173 -0.1727801478453407 -0.17317092975702986 -0.17196068480068155 -0.16904747390452426 -0.16439010822950378
-0.1580008497979857 -0.1499174410597823 -0.14024251772469018 -0.12909631458493262 -0.11660545551362732 -0.10287797505776246 -0.0880608996571263 -0.07230461502927724
-0.05577288580516394 -0.03857036880657659 -0.02078971237088048 -0.002497874051928913 0.016209458886996576 0.035261789311175566 0.05457438274002224 0.0741039718935308
0.0937914338884125 0.11360892604515702 0.13349826041264903 0.15342471032374405 0.17331566683566538 0.19313431872758335 0.21281258197955805 0.23228336094066404
0.2514565252183857 0.2702470501064164 0.2885768654427826 0.30636870955598194 0.323540799408949 0.3400043378296546 0.3556629580529176 0.3704136219783871
0.384148345633239 0.3967548643022619 0.40811518994763435 0.41810379028797556 0.42658789509602685 0.433430187755888 0.4384920561456998 0.44163611250158147
0.4427289450159942 0.4416462551520114 0.4382811128360724 0.43259936480723327 0.4247198287163619 0.41470965759124473 0.40281574141845183 0.38913263658385083
0.3739858278952282 0.35744887635553707 0.33988423673174506 0.32129918053167644 0.3020635443345356 0.2820769608922946 0.261719388028585 0.2407910911704733
0.2197100186452962 0.1981769098519719 0.1766567999119292 0.15473389059794165 0.13295206889805802 0.11075899809765556 0.08882066435413885 0.06642130106138125
0.044393976000093066 0.021956750782552194 -0.0002175003140864387 -0.022730413451324205 -0.04496956118392583 -0.06746814416041297 -0.0897735106490966 -0.11227711860681427
-0.13456150777886317 -0.1569758903765329 -0.17922476297238768 -0.20154832310480006 -0.2236803653441663 -0.24582495598154538 -0.26781449718331446 -0.28976305097144756
-0.3115270123957641 -0.33319018502014214 -0.35469305401279 -0.37604098967457417 -0.39720317806850486 -0.41815019402086206 -0.4388547492751949 -0.4592932870377408
-0.4794445454864567 -0.49928787335606434 -0.5188021814529677 -0.5379655710319143 -0.5567553506254768 -0.5751481043264394 -0.5931195901315103 -0.6106444339985072
-0.6276957420709725 -0.6442448003901418 -0.6602609675180191 -0.6757117493941353 -0.6905629587245299 -0.7047788470115278 -0.7183221402828806 -0.7311539672830158
-0.7432337085679948 -0.7545188151947864 -0.7649646616863978 -0.7745245142473628 -0.7831496902071869 -0.7907899391615701 -0.7973940092594496 -0.8029103239032517
-0.8072877269453008 -0.8104763410683984 -0.8124286509663369 -0.8131009021511676 -0.8124548012613335 -0.8104593928776596 -0.8071060388831307 -0.80242003603112
-0.7964155822213084 -0.7891519458798535 -0.7806506274055052 -0.7710023618834252 -0.7602269125900135 -0.7484463208555455 -0.7356676008857017 -0.7220405939167629
-0.7075434610740721 -0.6923518591127434 -0.676402109044863 -0.6599031217097694 -0.6427391427029818 -0.6251639387961133 -0.6069946538020886 -0.5885425296829115
-0.569538461978062 -0.5503699440281321 -0.5306619154550613 -0.5109060114610698 -0.4905988111820209 -0.4703704920395616 -0.44960690657950875 -0.42897288427094404
-0.40785744685169034 -0.38688801610984547 -0.3654845555884425 -0.34425107735054516 -0.3226297910348374 -0.3011619899753233 -0.27934530536952884 -0.2576883417499385
-0.23572136920407247 -0.21390477860030602 -0.19181171122668397 -0.16988374424315303 -0.14771279841875035 -0.12570114665225923 -0.10347542710811664 -0.081415606336736
-0.05917067207831608 -0.03707849157203178 -0.014826653832738217 0.007274217371093002 0.029509012429214096 0.051609051405092594 0.07381995954028689 0.09589995495657173
0.11806734783498596 0.1401152330279509 0.1622290028008989 0.18422049346637517 0.20625589695621652 0.2281704375120883 0.25010846002021003 0.27191669780981736
0.29372766929718247 0.31540650476934223 0.33706858225327013 0.35859116805819674 0.38007721067792855 0.4014231599028211 0.42271365003542916 0.4438586785641674
0.4649289625715897 0.4858515735147134 0.5066807479655606 0.5273538502172466 0.547914513829212 0.5683124889528438 0.5885795537269354 0.6086731015474035
